v1/char-rnn-classification.pt (torch_old, 775366 bytes, 4 tensors)

weight f4 [300, 600]
0.044181153 -0.011593012 0.04121858 0.025354141 0.096373565 0.027783716 0.055589024 0.020423321
0.043272637 0.05751865 -0.025879512 -0.045355096 -0.025326563 -0.022714116 0.014933829 0.03867166
-0.06341202 0.037132744 0.028643917 0.034008272 -0.047835354 0.0380009 -0.0431692 -0.046600383
-0.034242835 -0.05472394 0.015644124 0.019656386 -0.0740701 0.0436269 0.04478756 -0.001254222
0.047089774 0.001440286 -0.0023669929 0.003005974 0.018550416 -0.020565066 0.057613604 0.017783536
-0.033310186 0.046572767 0.028537637 0.030200288 0.008732548 -0.0055757295 0.022091305 0.05664691
-0.033723585 -0.03110017 0.025504092 0.015621545 -0.042660423 0.014032993 -0.014665845 -0.008490059
-0.057910744 -0.008089886 -0.06327938 -0.01816523 0.004979676 -0.03950362 0.04917901 -0.043500748
0.021920012 -0.023658466 -0.02268725 -0.064010896 -0.03253214 -0.03330604 0.06030018 -0.03432216
-0.05398709 -0.066653155 -0.013186249 0.023974027 0.049185283 0.04328476 0.017398505 0.023237025
0.018148696 -0.0001370025 -0.028585294 0.080056414 0.054560233 -0.002806162 -0.026261387 0.046773065
-0.032885212 0.019199094 0.01896622 0.00656096 -0.002551284 -0.021318052 0.003546261 -0.04033151
0.0006959622 -0.06390892 0.0574239 -0.028250331 0.033352435 -0.038565096 -0.005747481 0.015423471
-0.00035636677 -0.04641828 0.01437928 0.021455606 0.044101086 -0.01528457 0.017714476 0.013494007
0.026553942 -0.024527548 0.026855528 -0.037441604 -0.060946766 -0.05113334 0.024087474 -0.036366552
-0.04422576 -0.06462932 -0.033565592 0.07061027 0.022690041 -0.0030280468 -0.028010353 0.07441528
0.03846449 -0.026024994 -0.02096868 0.004002252 -0.02024838 0.063038714 -0.009486129 0.012679048
0.018278701 0.010385979 0.044003326 -0.019688094 0.04917021 0.044410896 -0.0046005785 0.06756659
-0.0031705638 0.07442665 0.03561548 0.021832192 0.019302022 0.010004316 -0.029470848 0.02307323
-0.0018700102 0.058604807 -0.037235923 -0.032148667 -0.041950986 0.007586615 0.06429253 0.07700169
-0.032154143 -0.044533495 0.027625643 0.05288296 -0.007848672 -0.043575477 0.0038101268 -0.0138242375
-0.006962075 0.06468925 0.03015044 0.014196087 0.039670892 -0.002824148 0.0015771377 -0.071191266
-0.03264846 0.03297613 -0.001849164 0.015729468 -0.012396366 -0.032228995 -0.028474126 -0.045963217
0.08887916 -0.006786303 0.003613254 0.005163985 0.07685959 0.010080418 0.0027161671 0.048598982
0.022360755 0.04779944 0.0029242907 0.00917974 -0.06489793 0.025087086 0.042035908 0.017161721
-0.024175528 -0.045282293 -0.07392179 -0.028989468 0.02753923 0.042634033 -0.06560896 -0.020112237
-1.8721643e-05 -0.04996575 -0.022695784 0.00632606 0.080150165 0.015081517 0.017299004 0.031429898
0.025925353 0.02753054 -0.024164818 0.034547437 0.0024572124 -0.028551774 0.00268231 0.027541507
-0.040465865 -0.03454609 0.008935803 -0.008395961 -0.029957198 -0.074006364 -0.03942575 0.002085578
0.020973388 0.036644086 0.021060579 -0.048019107 0.04730032 0.0039377725 0.009381535 -0.0011679702
-0.041201957 -0.012042338 -0.032264695 -0.023052031 0.053657662 -0.018154077 -0.057432063 0.010739524
0.015365538 -5.624474e-05 -0.057966642 -0.0063428194 -0.038640242 0.03512856 0.03853575 -0.025324509
00000000: 4cf7 343d 9ef0 3dbc d0d4 283d 7db3 cf3c
00000010: 815f c53d ad9a e33c 51b1 633d cf4e a73c
00000020: a63e 313d ad98 6b3d 4501 d4bc 44c6 39bd
00000030: a779 cfbc f412 babc 05ad 743c 2d66 1e3d
00000040: 29de 81bd 8118 183d a6a6 ea3c 424c 0b3d
00000050: 01ef 43bd d5a6 1b3d 30d2 30bd 0be0 3ebd
00000060: 3742 0cbd 3626 60bd 1b28 803c 6e06 a13c
00000070: 11b2 97bd 1fb2 323d 2973 373d b564 a4ba
00000080: 35e1 403d fbc7 bc3a 8d1f 1bbb e0ff 443b
00000090: 0bf7 973c 1278 a8bc 3efc 6b3d c7ae 913c
000000a0: 4370 08bd 16c3 3e3d c3c7 e93c 9866 f73c
000000b0: f612 0f3c 9cb4 b6bb d3f8 b43c 9706 683d
000000c0: be21 0abd c9c5 febc f5ed d03c 82f1 7f3c
000000d0: b2bc 2ebd a3ea 653c 0349 70bc e319 0bbc
000000e0: d133 6dbd 718b 04bc 9f98 81bd 40cf 94bc
000000f0: 8d2c a33b 8cce 21bd ee6f 493d d72d 32bd
00000100: 9991 b33c 66cf c1bc 9dda b9bc 2518 83bd
00000110: 6c40 05bd ea6b 08bd 52fd 763d 6595 0cbd
00000120: 9121 5dbd 7381 88bd 230b 58bc 2e65 c43c
00000130: 8276 493d 5c4b 313d 4f87 8e3c 935b be3c
00000140: 93ac 943c 54a8 0fb9 b52b eabc 9ef4 a33d
00000150: 8d7a 5f3d 96e7 37bb 1f22 d7bc 1d95 3f3d
00000160: a5b2 06bd 6b47 9d3c 0c5f 9b3c 52fd d63b
00000170: 7133 27bb 32a3 aebc 6368 683b a732 25bd
00000180: 3c71 363a aee2 82bd 5335 6b3d 3d6d e7bc
00000190: 909c 083d 6ff6 1dbd 5d55 bcbb bab2 7c3c
000001a0: bdd6 bab9 1821 3ebd 1297 6b3c abc3 af3c
000001b0: 57a3 343d 226c 7abc f31d 913c f815 5d3c
000001c0: a787 d93c ffed c8bc 2000 dc3c 5e5c 19bd
000001d0: 51a3 79bd 3171 51bd 1853 c53c 18f5 14bd
000001e0: 1226 35bd 605c 84bd 137c 09bd 1e9c 903d
000001f0: 77e0 b93c 3272 46bb f875 e5bc 0a67 983d
00000200: f18c 1d3d 5e32 d5bc 82c6 abbc 5325 833b
00000210: eedf a5bc 711a 813d b56b 1bbc c8bb 4f3c
00000220: 37bd 953c f429 2a3c d53c 343d ed48 a1bc
00000230: b466 493d 33e8 353d 73c0 96bb 5a60 8a3d
00000240: 3cc9 4fbb 006d 983d 8ae1 113d 6dd9 b23c
00000250: 461f 9e3c 25e9 233c d96c f1bc 1204 bd3c
00000260: 211b f5ba 980b 703d b284 18bd 52ae 03bd
00000270: ccd4 2bbd 2499 f83b cdab 833d 10b3 9d3d
00000280: 10b4 03bd c168 36bd 2c4f e23c cd9b 583d
00000290: b797 00bc 337c 32bd 52b3 793b 0e7f 62bc
000002a0: 1e22 e4bb cc7b 843d 0efe f63c b496 683c
000002b0: f27d 223d 5715 39bb f6b7 ce3a bacc 91bd
000002c0: 64ba 05bd fa11 073d a65f f2ba 16db 803c
000002d0: 211a 4bbc 8d02 04bd 9242 e9bc ed43 3cbd
000002e0: 4706 b63d a35f debb 58cc 6c3b a536 a93b
000002f0: 9068 9d3d 5628 253c b901 323b ba0f 473d
00000300: e72d b73c 58c9 433d 75a5 3f3b 9f66 163c
00000310: 35e9 84bd 6f83 cd3c d82d 2c3d bd96 8c3c
00000320: c20b c6bc ed79 39bd 4f64 97bd 527b edbc
00000330: f499 e13c 06a1 2e3d fe5d 86bd 6bc2 a4bc
00000340: 6c0c 9db7 e3a8 4cbd 82ec b9bc d64a cf3b
00000350: c525 a43d 7818 773c a4b6 8d3c a3bc 003d
00000360: 6861 d43c ba87 e13c 4cf5 c5bc 9d81 0d3d
00000370: 2f09 213b 69e5 e9bc b2c9 2f3b ba9e e13c
00000380: 89bf 25bd 3380 0dbd 7967 123c 368f 09bc
00000390: cc68 f5bc a690 97bd e57c 21bd 31ae 083b
000003a0: 62d0 ab3c 1c18 163d 3c87 ac3c afaf 44bd
000003b0: fbbd 413d 6e08 813b 03b5 193c 9416 99ba
000003c0: 62c3 28bd 3a4d 45bc fc27 04bd 9dd7 bcbc
000003d0: 23c8 5b3d dcb7 94bc e23d 6bbd d4f4 2f3c
000003e0: bdbf 7b3c 54e8 6bb8 6e6e 6dbd 6dd7 cfbb
000003f0: 3b45 1ebd f7e2 0f3d aad7 1d3d 5875 cfbc

bias f4 [300]
-0.015776731 0.014889286 0.025494004 -0.07995519 -0.04969886 -0.056664363 0.06414547 -0.016198725
0.076007545 -0.01851438 -0.07247446 0.067545645 -0.0030415647 0.020698616 -0.04983189 -0.0111763105
0.0014030397 -0.031309254 0.061870907 -0.029497283 -0.0110815475 -0.02766699 -0.03984131 0.026083672
0.07675899 0.017330095 -0.070977055 -0.040261734 -0.015236163 -0.04344356 0.036032684 0.013911628
0.010207723 -0.018182829 -0.035694484 0.08785341 0.0015593341 0.008594483 0.015533832 0.004178663
-0.033283245 -0.05159789 -0.016823644 -0.009742509 -0.014790582 0.06516272 0.003842184 -0.008755722
-0.055983264 -0.022455355 0.013017498 0.001703512 -0.05932273 0.010707145 0.012736634 0.07598621
0.01781837 0.016904168 0.019770125 0.028270252 -0.017377406 -0.0071000676 0.04484402 0.055854257
0.0016691136 -0.052601457 0.01124802 -0.013324536 -0.0076941187 0.10542377 0.05005574 0.004367917
-0.07396005 0.08042245 -0.036980633 0.018022725 0.065734476 0.026919028 0.070827425 -0.01683867
-8.64797e-06 0.016700955 0.022372147 0.034365494 0.00080966763 0.038241386 0.013612132 -0.0014448906
-0.017481016 -0.07072645 0.03553 -0.014228356 -0.019093787 -0.0274435 0.12280316 -0.03150018
0.023833243 -0.026717555 0.025304865 -0.015291128 0.00358789 -0.026160633 0.0439913 -0.017233167
-0.015159882 -0.0032024384 -0.015138368 0.022769528 -0.034259524 0.040315054 -0.0066792523 -0.04568337
0.008817592 0.0020982302 0.0024673922 0.002422035 -0.014411832 0.015061938 -0.032477047 -0.027959248
0.016589163 -0.0055322684 -0.01838584 -0.024599807 -0.022461021 0.016788715 0.04236847 0.021229088
-0.045411263 0.035548978 0.093205184 0.029630337 -0.035480846 0.025884973 -0.023250304 0.029419804
-0.00679733 -0.039135 0.03040715 0.056612946 0.07539303 0.06391625 -0.052135408 0.010536311
0.011169165 -0.016266536 0.024013748 -0.008006967 0.027793918 0.021595754 0.04241843 -0.05163955
0.012907399 0.040810954 0.03457804 0.032448415 0.0013101662 -0.034773737 -0.019160822 0.0353294
-0.025099555 -0.068860926 0.004724311 -0.050326873 0.012427687 0.040189408 0.026304921 0.003864545
0.005557297 -0.023854591 0.0069934893 0.038150232 0.06891934 0.0059624733 -0.039252527 0.046819575
-0.035120394 0.00074005534 0.07631924 0.11353565 -0.019179888 0.05416189 0.057214245 -0.0092881555
-0.030379621 -0.015538421 -0.036768682 0.027965799 -0.014033619 0.04729421 -0.03429199 -0.022436429
0.04585157 0.048443355 0.008323796 0.01765846 0.041207794 -0.010135293 -0.06290695 0.019705288
0.038133185 -0.0036680384 0.048367277 -0.048316307 0.0017153552 -0.039612908 0.027516987 0.03193379
0.018347116 0.030586809 0.011604831 -0.025043461 -0.0023711333 -0.03061502 -0.06323293 0.029343469
0.020694435 -0.002946485 -0.049004532 0.06647076 0.05410617 -0.03290736 0.06934891 0.005502237
0.02954859 -0.02451218 -0.023810042 -0.027712448 0.0046827844 0.011161769 0.051755235 -0.038931027
-0.023748547 0.034341816 -0.020479886 0.028515149 0.0051903687 0.025410846 0.015870312 0.045111135
0.035218928 -0.016338998 -0.03701155 -0.009939096 0.08255737 -0.01963402 0.037978392 -0.0036451553
-0.023581885 -0.045754284 0.08136647 -0.06552428 -0.0023719016 -0.032392092 -0.037001852 -0.028805984
00000000: 343e 81bc 31f2 733c cdd8 d03c 8cbf a3bd
00000010: 0891 4bbd e418 68bd b35e 833d 30b3 84bc
00000020: d8a9 9b3d 78ab 97bc 7d6d 94bd 5f55 8a3d
00000030: fd54 47bb 2590 a93c 861c 4cbd d81c 37bc
00000040: 33e6 b73a 223e 00bd 596c 7d3d 49a4 f1bc
00000050: 618f 35bc e2a5 e2bc a430 23bd 6dad d53c
00000060: d133 9d3d d8f7 8d3c 6b5c 91bd 7de9 24bd
00000070: 19a1 79bc e0f1 31bd 0297 133d 99ed 633c
00000080: 4b3e 273c 28f4 94bc 6134 12bd 7dec b33d
00000090: 9262 cc3a e0cf 0c3c 9d81 7e3c 2aed 883b
000000a0: 0354 08bd 4f58 53bd bdd1 89bc 0b9f 1fbc
000000b0: 3254 72bc 0874 853d 27cd 7b3b 2974 0fbc
000000c0: b54e 65bd 4bf4 b7bc 5847 553c 6148 df3a
000000d0: 64fc 72bd 056d 2f3c 51ad 503c a89e 9b3d
000000e0: d5f7 913c 9c7a 8a3c f5f4 a13c 0497 e73c
000000f0: 105b 8ebc afa7 e8bb 5dae 373d 6fc7 643d
00000100: 29c6 da3a a074 57bd 9e49 383c 284f 5abc
00000110: f21e fcbb 6be8 d73d 3f07 4d3d be20 8f3b
00000120: 5e78 97bd 87b4 a43d 0179 17bd 65a4 933c
00000130: cc9f 863d 4b85 dc3c f80d 913d 40f1 89bc
00000140: c016 11b7 71d0 883c cb45 b73c d5c2 0c3d
00000150: e03f 543a 00a3 1c3d 6b05 5f3c 7c62 bdba
00000160: 5934 8fbc 07d9 90bd e887 113d 0d1e 69bc
00000170: 936a 9cbc 31d1 e0bc 3980 fb3d 5506 01bd
00000180: ef3d c33c c6de dabc 264c cf3c a487 7abc
00000190: ce22 6b3b d34e d6bc 3930 343d 922c 8dbc
000001a0: 2761 78bc 00e0 51bb eb06 78bc 2987 ba3c
000001b0: b753 0cbd 6621 253d a1dd dabb 7c1e 3bbd
000001c0: a977 103c 7682 093b f9b3 213b 01bb 1e3b
000001d0: 9b1f 6cbc 59c6 763c a706 05bd cb0a e5bc
000001e0: ffe5 873c 0848 b5bb e79d 96bc 8985 c9bc
000001f0: 2d00 b8bc 7d88 893c 908a 2d3d a0e8 ad3c
00000200: 2901 3abd ce9b 113d 5ce2 be3d 52bb f23c
00000210: 5d54 11bd b90c d43c 6c77 bebc cd01 f13c
00000220: 23bc debb 064c 20bd 6a18 f93c fae2 673d
00000230: a967 9a3d 86e6 823d f08b 55bd 7ea0 2c3c
00000240: e0fe 363c 6641 85bc 7bb8 c43c a72f 03bc
00000250: 12b0 e33c 94e9 b03c f3be 2d3d fe83 53bd
00000260: 8e79 533c 6329 273d b4a1 0d3d a1e8 043d
00000270: e2b9 ab3a e86e 0ebd 28f7 9cbc 90b5 103d
00000280: 959d cdbc f506 8dbd 65ce 9a3b 8d23 4ebd
00000290: 7f9d 4b3c a69d 243d 6b7d d73c 4e44 7d3b
000002a0: fc19 b63b b46a c3bc a429 e53b 6b43 1c3d
000002b0: 9525 8d3d da60 c33b 42c7 20bd e2c5 3f3d
000002c0: 67da 0fbd 4600 423a 434d 9c3d 6185 e83d
000002d0: 241f 9dbc dcd8 5d3d 7c59 6a3d 592d 18bc
000002e0: afde f8bc dd94 7ebc c29a 16bd 8818 e53c
000002f0: 44ed 65bc 93b7 413d c275 0cbd 9acc b7bc
00000300: dbce 3b3d 8a6c 463d 8860 083c 7aa8 903c
00000310: 81c9 283d 800e 26bc 5cd5 80bd fc6c a13c
00000320: 8b31 1c3d 7963 70bb c41c 463d 52e7 45bd
00000330: c5d5 e03a 2541 22bd 4e6b e13c 01cd 023d
00000340: b14c 963c 3091 fa3c 3022 3e3c f227 cdbc
00000350: 0465 1bbb 5acc fabc 4480 81bd b761 f03c
00000360: 6087 a93c d119 41bb fab8 48bd d221 883d
00000370: 6e9e 5d3d dec9 06bd cd06 8e3d 1c4c b43b
00000380: e20f f23c c4cd c8bc 470d c3bc 3705 e3bc
00000390: 0b72 993b dadf 363c 4cfd 533d 2476 1fbd
000003a0: 508c c2bc 01aa 0c3d 6fc5 a7bc 9a98 e93c
000003b0: f813 aa3b 682a d03c 7502 823c 74c6 383d
000003c0: b941 103d 5dd9 85bc 6c99 17bd 97d7 22bc
000003d0: d713 a93d 86d7 a0bc 3b8f 1b3d 8fe3 6ebb
000003e0: cc2e c1bc d868 3bbd 77a3 a63d 9831 86bd
000003f0: e871 1bbb 92ad 04bd 418f 17bd 87fa ebbc

weight f4 [20, 600]
-0.016485682 0.024834601 -0.10380847 -0.060719125 -0.08424486 0.033331905 0.055935487 0.0028952237
-0.10511978 -0.11450783 -0.012919534 0.17514198 0.09262514 0.14616041 0.018199077 -0.079140246
-0.055617113 0.0375969 0.030639421 0.04003572 0.027704665 0.017767731 0.06916147 -0.02077767
0.18836607 0.0030867613 -0.041610382 0.07642758 0.065422386 -0.04282044 -0.10866394 0.01921548
0.0017734298 0.12951405 0.2155124 -0.0007100117 -0.02798268 -0.07742732 0.054286055 -0.03492793
-0.027037768 -0.07449259 -0.062388893 0.00030139645 -0.04036904 0.0006688878 -0.15820003 -0.0758726
0.0028608346 -0.088216655 0.035323095 0.08157074 0.048615653 -0.019939503 -0.05000117 0.047177255
0.11263387 0.04563671 0.006638304 0.10124521 0.04406635 -0.019401234 0.0753082 0.056999933
-0.03287816 0.013961164 -0.12586157 0.17591392 0.019734534 0.16154039 -0.05143684 0.0075123752
0.011076229 -0.02648955 0.025839165 0.03575964 0.0171938 -0.1643569 0.050996304 -0.055633143
0.12359506 0.090523936 0.016627416 -0.067961626 -0.025674311 -0.1305556 0.03116711 0.08573052
0.043702036 0.037599005 -0.14484002 -0.028590385 0.079979755 0.05073944 0.027405592 0.02654781
-0.08904762 -0.048476364 -0.021943199 -0.041144 -0.036549035 0.094327234 0.078731164 0.008860814
-0.07708087 0.02648407 0.018341932 0.03297503 0.029073108 -0.022546962 0.0333414 -0.084231
0.088510714 -0.0013998273 -0.06495112 0.054907158 -0.0003875359 0.12441198 -0.13366695 0.071339265
0.07177902 0.101266295 0.09407433 0.12779151 0.11042443 0.14182897 0.061886605 -0.0065734433
0.0865028 -0.060883623 0.040870067 0.07980413 0.035022542 0.05335972 -0.070397876 -0.027438706
0.072464325 0.0039269594 0.069080725 -0.013601517 -0.026729418 0.063856505 -0.04513182 -0.05488353
0.18094417 -0.07443018 0.009029305 0.01979849 -0.10971946 -0.04664223 0.048434153 0.022526639
0.05731961 -0.1457951 -0.09936062 -0.07396902 0.074790046 -0.09186546 0.03645846 0.1270298
0.08708623 0.029707672 0.06792547 0.080828145 -0.17770343 0.1095396 -0.052053757 0.0038453666
0.04008625 -0.1314633 -0.060316246 0.12276198 -0.14270677 0.0057866964 0.061406966 0.18283235
0.062726185 0.1543692 0.019909391 0.13170844 0.050010182 0.02718721 0.005135249 0.071477346
-0.114596985 0.12436804 0.08827183 -0.0026793173 -0.006111601 -0.13855416 -0.048733614 -0.10899675
0.054095864 -0.044850998 -0.043738097 0.01813127 -0.04511297 -0.011345941 -0.0019513804 0.05270531
4.094725e-05 0.08306601 0.22426438 -0.040611975 0.04173157 0.07426773 -0.10243148 0.00039065743
0.043098614 -0.0023689664 -0.016273398 -0.12202809 0.07255181 0.15994754 0.05571409 0.014308987
0.17499565 -0.08672378 0.07805949 0.022389308 0.16503868 0.13536915 -0.18797642 0.026486827
0.03848481 -0.13126035 -0.035228815 -0.094316214 0.033249166 0.0024129185 0.13052948 -0.03344504
-0.015985504 0.05554437 -0.016327146 -0.12279055 0.027231367 0.1138958 -0.048078902 0.058721744
-0.07404115 0.09956611 0.13313417 -0.029894786 -0.11988762 -0.015306202 0.09237624 0.12323506
0.010587721 0.023642415 -0.011458096 -0.14172177 -0.011538466 -0.032024216 0.03462205 -0.010952052
00000000: fb0c 87bc ef71 cb3c 8999 d4bd 9eb4 78bd
00000010: 9288 acbd 0987 083d 9c1c 653d cbbd 3d3b
00000020: 0a49 d7bd 1583 eabd 74ac 53bc 6b58 333e
00000030: 40b2 bd3d 13ab 153e 3b16 953c 4814 a2bd
00000040: c5ce 63bd 35ff 193d 86ff fa3c 7ffc 233d
00000050: e5f4 e23c a28d 913c 87a4 8d3d ef35 aabc
00000060: 09e3 403e 434b 4a3b a66f 2abd 1086 9c3d
00000070: 2cfc 853d 7c64 2fbd 338b debd c869 9d3c
00000080: 6e72 e83a 559f 043e 48af 5c3e 1420 3aba
00000090: ef3b e5bc 3792 9ebd 0e5b 5e3d 9710 0fbd
000000a0: 4f7e ddbc 928f 98bd 7f8b 7fbd bf04 9e39
000000b0: 025a 25bd 4d58 2f3a 30ff 21be 1863 9bbd
000000c0: d77c 3b3b efaa b4bd f3ae 103d 8f0e a73d
000000d0: 3521 473d 2b58 a3bc 07ce 4cbd f03c 413d
000000e0: 96ac e63d 8fed 3a3d 2186 d93b a659 cf3d
000000f0: eb7e 343d 56ef 9ebc 303b 9a3d c378 693d
00000100: 40ab 06bd 5ebd 643c dbe1 00be c722 343e
00000110: 51aa a13c d86a 253e 70af 52bd 5f2a f63b
00000120: 1279 353c 9d00 d9bc a8ac d33c b378 123d
00000130: 03da 8c3c 2d4d 28be 80e1 503d 94df 63bd
00000140: 681f fd3d 9d64 b93d 3836 883c 772f 8bbd
00000150: ef52 d2bc 5eb0 05be 2b52 ff3c 7c93 af3d
00000160: e800 333d 6a01 1a3d f150 14be 6236 eabc
00000170: 6dcc a33d 29d4 4f3d b181 e03c cb7a d93c
00000180: 995e b6bd 278f 46bd 39c2 b3bc 9c86 28bd
00000190: 71b4 15bd a32e c13d ce3d a13d f32c 113c
000001a0: 93dc 9dbd 1ff5 d83c d241 963c d310 073d
000001b0: ba2a ee3c 68b4 b8bc fe90 083d 4d81 acbd
000001c0: 1b45 b53d 697a b7ba 1805 85bd 54e6 603d
000001d0: 302e cbb9 b5cb fe3d fddf 08be 521a 923d
000001e0: e100 933d b464 cf3d 0baa c03d c7db 023e
000001f0: 3426 e23d 9d3b 113e cf7c 7d3d 0a66 d7bb
00000200: 6128 b13d 1b61 79bd 5f67 273d 5970 a33d
00000210: cc73 0f3d b98f 5a3d c32c 90bd 23c7 e0bc
00000220: 2d68 943d b9ad 803b 327a 8d3d e6d8 5ebc
00000230: a7f7 dabc 33c7 823d 25dc 38bd 8dcd 60bd
00000240: 6e49 393e da6e 98bd a6ef 133c 7130 a23c
00000250: 99b4 e0bd ec0b 3fbd e462 463d c989 b83c
00000260: f8c7 6a3d 504b 15be 957d cbbd 127d 97bd
00000270: 862b 993d f523 bcbd 7755 153d 1a14 023e
00000280: 445a b23d 815d f33c 821c 8b3d 3a89 a53d
00000290: e3f7 35be 4c56 e03d 5236 55bd 8c02 7c3b
000002a0: 7b31 243d 519e 06be 2b0e 77bd a26a fb3d
000002b0: b921 12be 549e bd3b df85 7b3d 6738 3b3e
000002c0: 9676 803d f612 1e3e 0519 a33c 94de 063e
000002d0: 7ad7 4c3d b6b7 de3c 9745 a83b b762 923d
000002e0: d3b1 eabd acb4 fe3d dcc7 b43d 7c97 2fbb
000002f0: d343 c8bb 24e1 0dbe e69c 47bd b039 dfbd
00000300: a093 5d3d aeb5 37bd b826 33bd 0788 943c
00000310: 61c8 38bd 53e4 39bc 76c5 ffba 86e1 573d
00000320: c6be 2b38 831e aa3d 90a5 653e be58 26bd
00000330: b9ee 2a3d ae19 983d 99c7 d1bd 27d1 cc39
00000340: 2c88 303d a940 1bbb ca4f 85bc dde9 f9bd
00000350: 0b96 943d 4ac9 233e 7534 643d 3e70 6a3c
00000360: 0f32 333e 3d9c b1bd a7dd 9f3d c869 b73c
00000370: e6ff 283e 369e 0a3e e47c 40be e7fa d83c
00000380: 40a2 1d3d 1d69 06be 174c 10bd dc28 c1bd
00000390: 4730 083d 0e22 1e3b 85a9 053e abfd 08bd
000003a0: 08f4 82bc 7e82 633d 82c0 85bc 9d79 fbbd
000003b0: 5114 df3c 3442 e93d 62ee 44bd 3686 703d
000003c0: e3a2 97bd 51e9 cb3d 5354 083e e9e5 f4bc
000003d0: a487 f5bd ddc6 7abc c12f bd3d aa62 fc3d
000003e0: 1f78 2d3c bdad c13c bdba 3bbc 831f 11be
000003f0: d60b 3dbc d32b 03bd dacf 0d3d 3c70 33bc

bias f4 [20]
-0.07039451 0.08931507 -0.04933326 0.058089722 -0.06673591 -0.048424374 -0.0027816375 0.15425706
-0.014883636 -0.120269336 -0.13802594 -0.019298159 -0.058782328 0.05591163 0.14694396 -0.06374232
-0.037626795 0.04490339 0.20286486 -0.061341874
00000000: ff2a 90bd d2ea b63d ac11 4abd 7def 6d3d
00000010: d6ac 88bd a358 46bd 224c 36bb 90f5 1d3e
00000020: 7eda 73bc c54f f6bd ac56 0dbe 2c17 9ebc
00000030: bdc5 70bd 9803 653d 7a78 163e 558b 82bd
00000040: 8e1e 1abd 9eec 373d cebb 4f3e 9e41 7bbd
